…
device_id: 5
net: "examples/MultiPIE/basemodel/train_val.prototxt"
average_loss: 200
stepvalue: 1247250
stepvalue: 1621425
I0913 12:24:32.348052 19967 solver.cpp:92] Creating training net from net file: examples/MultiPIE/basemodel/train_val.prototxt
I0913 12:24:32.350476 19967 net.cpp:49] Initializing net from parameters: 
name: "MultiPIE_CASIANet"
state {
  phase: TRAIN
}
layer {
  name: "data"
  type: "HDF5Data"
  top: "data"
  top: "label"
  hdf5_data_param {
    source: "examples/MultiPIE/data_norm/face_train.txt"
    batch_size: 4
    shuffle: true
  }
}
layer {
  name: "slice1"
  type: "Slice"
  bottom: "label"
  top: "label_id"
  top: "label_pos"
  top: "label_exp"
  top: "label_illum"
  top: "label_cam"
  slice_param {
    slice_dim: 1
  }
}
layer {
  name: "conv11"
  type: "Convolution"
  bottom: "data"
  top: "conv11"
  param {
    lr_mult: 1
    decay_mult: 0
  }
  param {
    lr_mult: 1
    decay_mult: 0
  }
  convolution_param {
    num_output: 32
    pad: 1
    kernel_size: 3
    stride: 1
    weight_filler {
      type: "gaussian"
      std: 0.01
    }
    bias_filler {
      type: "constant"
      value: 0
    }
  }
}
layer {
  name: "bn_conv11"
  type: "BatchNorm"
  bottom: "conv11"
  top: "conv11"
}
layer {
  name: "scale_conv11"
  type: "Scale"
  bottom: "conv11"
  top: "conv11"
  scale_param {
    bias_term: true
  }
}
layer {
  name: "relu11"
  type: "ReLU"
  bottom: "conv11"
  top: "conv11"
}
layer {
  name: "conv12"
  type: "Convolution"
  bottom: "conv11"
  top: "conv12"
  param {
    lr_mult: 1
    decay_mult: 0
  }
  param {
    lr_mult: 1
    decay_mult: 0
  }
  convolution_param {
    num_output: 64
    pad: 1
    kernel_size: 3
    stride: 1
    weight_filler {
      type: "gaussian"
      std: 0.01
    }
    bias_filler {
      type: "constant"
      value: 0
    }
  }
}
layer {
  name: "bn_conv12"
  type: "BatchNorm"
  bottom: "conv12"
  top: "conv12"
}
layer {
  name: "scale_conv12"
  type: "Scale"
  bottom: "conv12"
  top: "conv12"
  scale_param {
    bias_term: true
  }
}
layer {
  name: "relu12"
  type: "ReLU"
  bottom: "conv12"
  top: "conv12"
}
layer {
  name: "pool1"
  type: "Pooling"
  bottom: "conv12"
  top: "pool1"
  pooling_param {
    pool: MAX
    kernel_size: 2
    stride: 2
  }
}
layer {
  name: "conv21"
  type: "Convolution"
  bottom: "pool1"
  top: "conv21"
  param {
    lr_mult: 1
    decay_mult: 0
  }
  param {
    lr_mult: 1
    decay_mult: 0
  }
  convolution_param {
    num_output: 64
    pad: 1
    kernel_size: 3
    stride: 1
    weight_filler {
      type: "gaussian"
      std: 0.01
    }
    bias_filler {
      type: "constant"
      value: 0
    }
  }
}
layer {
  name: "bn_conv21"
  type: "BatchNorm"
  bottom: "conv21"
  top: "conv21"
}
layer {
  name: "scale_conv21"
  type: "Scale"
  bottom: "conv21"
  top: "conv21"
  scale_param {
    bias_term: true
  }
}
layer {
  name: "relu21"
  type: "ReLU"
  bottom: "conv21"
  top: "conv21"
}
layer {
  name: "conv22"
  type: "Convolution"
  bottom: "conv21"
  top: "conv22"
  param {
    lr_mult: 1
    decay_mult: 0
  }
  param {
    lr_mult: 1
    decay_mult: 0
  }
  convolution_param {
    num_output: 128
    pad: 1
    kernel_size: 3
    stride: 1
    weight_filler {
      type: "gaussian"
      std: 0.01
    }
    bias_filler {
      type: "constant"
      value: 0
    }
  }
}
layer {
  name: "bn_conv22"
  type: "BatchNorm"
  bottom: "conv22"
  top: "conv22"
}
layer {
  name: "scale_conv22"
  type: "Scale"
  bottom: "conv22"
  top: "conv22"
  scale_param {
    bias_term: true
  }
}
layer {
  name: "relu22"
  type: "ReLU"
  bottom: "conv22"
  top: "conv22"
}
layer {
  name: "pool2"
  type: "Pooling"
  bottom: "conv22"
  top: "pool2"
  pooling_param {
    pool: MAX
    kernel_size: 2
    stride: 2
  }
}
layer {
  name: "conv31"
  type: "Convolution"
  bottom: "pool2"
  top: "conv31"
  param {
    lr_mult: 1
    decay_mult: 0
  }
  param {
    lr_mult: 1
    decay_mult: 0
  }
  convolution_param {
    num_output: 96
    pad: 1
    kernel_size: 3
    stride: 1
    weight_filler {
      type: "gaussian"
      std: 0.01
    }
    bias_filler {
      type: "constant"
      value: 0
    }
  }
}
layer {
  name: "bn_conv31"
  type: "BatchNorm"
  bottom: "conv31"
  top: "conv31"
}
layer {
  name: "scale_conv31"
  type: "Scale"
  bottom: "conv31"
  top: "conv31"
  scale_param {
    bias_term: true
  }
}
layer {
  name: "relu31"
  type: "ReLU"
  bottom: "conv31"
  top: "conv31"
}
layer {
  name: "conv32"
  type: "Convolution"
  bottom: "conv31"
  top: "conv32"
  param {
    lr_mult: 1
    decay_mult: 0
  }
  param {
    lr_mult: 1
    decay_mult: 0
  }
  convolution_param {
    num_output: 192
    pad: 1
    kernel_size: 3
    stride: 1
    weight_filler {
      type: "gaussian"
      std: 0.01
    }
    bias_filler {
      type: "constant"
      value: 0
    }
  }
}
layer {
  name: "bn_conv32"
  type: "BatchNorm"
  bottom: "conv32"
  top: "conv32"
}
layer {
  name: "scale_conv32"
  type: "Scale"
  bottom: "conv32"
  top: "conv32"
  scale_param {
    bias_term: true
  }
}
layer {
  name: "relu32"
  type: "ReLU"
  bottom: "conv32"
  top: "conv32"
}
layer {
  name: "pool3"
  type: "Pooling"
  bottom: "conv32"
  top: "pool3"
  pooling_param {
    pool: MAX
    kernel_size: 2
    stride: 2
    pad: 1
  }
}
layer {
  name: "conv41"
  type: "Convolution"
  bottom: "pool3"
  top: "conv41"
  param {
    lr_mult: 1
    decay_mult: 0
  }
  param {
    lr_mult: 1
    decay_mult: 0
  }
  convolution_param {
    num_output: 128
    pad: 1
    kernel_size: 3
    stride: 1
    weight_filler {
      type: "gaussian"
      std: 0.01
    }
    bias_filler {
      type: "constant"
      value: 0
    }
  }
}
layer {
  name: "bn_conv41"
  type: "BatchNorm"
  bottom: "conv41"
  top: "conv41"
}
layer {
  name: "scale_conv41"
  type: "Scale"
  bottom: "conv41"
  top: "conv41"
  scale_param {
    bias_term: true
  }
}
layer {
  name: "relu41"
  type: "ReLU"
  bottom: "conv41"
  top: "conv41"
}
layer {
  name: "conv42"
  type: "Convolution"
  bottom: "conv41"
  top: "conv42"
  param {
    lr_mult: 1
    decay_mult: 0
  }
  param {
    lr_mult: 1
    decay_mult: 0
  }
  convolution_param {
    num_output: 256
    pad: 1
    kernel_size: 3
    stride: 1
    weight_filler {
      type: "gaussian"
      std: 0.01
    }
    bias_filler {
      type: "constant"
      value: 0
    }
  }
}
layer {
  name: "bn_conv42"
  type: "BatchNorm"
  bottom: "conv42"
  top: "conv42"
}
layer {
  name: "scale_conv42"
  type: "Scale"
  bottom: "conv42"
  top: "conv42"
  scale_param {
    bias_term: true
  }
}
layer {
  name: "relu42"
  type: "ReLU"
  bottom: "conv42"
  top: "conv42"
}
layer {
  name: "pool4"
  type: "Pooling"
  bottom: "conv42"
  top: "pool4"
  pooling_param {
    pool: MAX
    kernel_size: 2
    stride: 2
    pad: 1
  }
}
layer {
  name: "conv51"
  type: "Convolution"
  bottom: "pool4"
  top: "conv51"
  param {
    lr_mult: 1
    decay_mult: 0
  }
  param {
    lr_mult: 1
    decay_mult: 0
  }
  convolution_param {
    num_output: 160
    pad: 1
    kernel_size: 3
    stride: 1
    weight_filler {
      type: "gaussian"
      std: 0.01
    }
    bias_filler {
      type: "constant"
      value: 0
    }
  }
}
layer {
  name: "bn_conv51"
  type: "BatchNorm"
  bottom: "conv51"
  top: "conv51"
}
layer {
  name: "scale_conv51"
  type: "Scale"
  bottom: "conv51"
  top: "conv51"
  scale_param {
    bias_term: true
  }
}
layer {
  name: "relu51"
  type: "ReLU"
  bottom: "conv51"
  top: "conv51"
}
layer {
  name: "conv52"
  type: "Convolution"
  bottom: "conv51"
  top: "conv52"
  param {
    lr_mult: 1
    decay_mult: 0
  }
  param {
    lr_mult: 1
    decay_mult: 0
  }
  convolution_param {
    num_output: 320
    pad: 1
    kernel_size: 3
    stride: 1
    weight_filler {
      type: "gaussian"
      std: 0.01
    }
    bias_filler {
      type: "constant"
      value: 0
    }
  }
}
layer {
  name: "bn_conv52"
  type: "BatchNorm"
  bottom: "conv52"
  top: "conv52"
}
layer {
  name: "scale_conv52"
  type: "Scale"
  bottom: "conv52"
  top: "conv52"
  scale_param {
    bias_term: true
  }
}
layer {
  name: "pool5"
  type: "Pooling"
  bottom: "conv52"
  top: "pool5"
  pooling_param {
    pool: AVE
    kernel_size: 7
  }
}
layer {
  name: "drop5"
  type: "Dropout"
  bottom: "pool5"
  top: "pool5"
  dropout_param {
    dropout_ratio: 0.4
  }
}
layer {
  name: "fc6_id"
  type: "InnerProduct"
  bottom: "pool5"
  top: "fc6_id"
  param {
    lr_mult: 1
    decay_mult: 1
  }
  param {
    lr_mult: 1
    decay_mult: 1
  }
  inner_product_param {
    num_output: 200
    weight_filler {
      type: "gaussian"
      std: 0.01
    }
    bias_filler {
      type: "constant"
      value: 0
    }
  }
}
layer {
  name: "prob_id"
  type: "Softmax"
  bottom: "fc6_id"
  top: "prob_id"
}
layer {
  name: "accuracy_id"
  type: "Accuracy"
  bottom: "prob_id"
  bottom: "label_id"
  top: "accuracy_id"
}
layer {
  name: "loss_id"
  type: "SoftmaxWithLoss"
  bottom: "fc6_id"
  bottom: "label_id"
  top: "loss_id"
}
layer {
  name: "useless"
  type: "UselessTop"
  bottom: "label_pos"
  bottom: "label_exp"
  bottom: "label_illum"
  bottom: "label_cam"
  top: "useless"
}
I0913 12:24:32.350770 19967 layer_factory.hpp:76] Creating layer data
I0913 12:24:32.350786 19967 net.cpp:106] Creating Layer data
I0913 12:24:32.350793 19967 net.cpp:411] data -> data
I0913 12:24:32.350816 19967 net.cpp:411] data -> label
I0913 12:24:32.350831 19967 hdf5_data_layer.cpp:79] Loading list of HDF5 filenames from: examples/MultiPIE/data_norm/face_train.txt
I0913 12:24:32.351732 19967 hdf5_data_layer.cpp:93] Number of HDF5 files: 25
I0913 12:24:32.413424 19967 hdf5.cpp:32] Datatype class: H5T_FLOAT
I0913 12:27:30.145051 19967 net.cpp:150] Setting up data
I0913 12:27:30.145165 19967 net.cpp:157] Top shape: 4 1 100 100 (40000)
I0913 12:27:30.145181 19967 net.cpp:157] Top shape: 4 5 (20)
I0913 12:27:30.145190 19967 net.cpp:165] Memory required for data: 160080
I0913 12:27:30.145206 19967 layer_factory.hpp:76] Creating layer slice1
I0913 12:27:30.145236 19967 net.cpp:106] Creating Layer slice1
I0913 12:27:30.145248 19967 net.cpp:454] slice1 <- label
I0913 12:27:30.145275 19967 net.cpp:411] slice1 -> label_id
I0913 12:27:30.145301 19967 net.cpp:411] slice1 -> label_pos
I0913 12:27:30.145318 19967 net.cpp:411] slice1 -> label_exp
I0913 12:27:30.145334 19967 net.cpp:411] slice1 -> label_illum
I0913 12:27:30.145346 19967 net.cpp:411] slice1 -> label_cam
I0913 12:27:30.145483 19967 net.cpp:150] Setting up slice1
I0913 12:27:30.145499 19967 net.cpp:157] Top shape: 4 1 (4)
I0913 12:27:30.145509 19967 net.cpp:157] Top shape: 4 1 (4)
I0913 12:27:30.145519 19967 net.cpp:157] Top shape: 4 1 (4)
I0913 12:27:30.145529 19967 net.cpp:157] Top shape: 4 1 (4)
I0913 12:27:30.145537 19967 net.cpp:157] Top shape: 4 1 (4)
I0913 12:27:30.145545 19967 net.cpp:165] Memory required for data: 160160
I0913 12:27:30.145552 19967 layer_factory.hpp:76] Creating layer label_id_slice1_0_split
I0913 12:27:30.145567 19967 net.cpp:106] Creating Layer label_id_slice1_0_split
I0913 12:27:30.145576 19967 net.cpp:454] label_id_slice1_0_split <- label_id
I0913 12:27:30.145588 19967 net.cpp:411] label_id_slice1_0_split -> label_id_slice1_0_split_0
I0913 12:27:30.145603 19967 net.cpp:411] label_id_slice1_0_split -> label_id_slice1_0_split_1
I0913 12:27:30.145668 19967 net.cpp:150] Setting up label_id_slice1_0_split
I0913 12:27:30.145683 19967 net.cpp:157] Top shape: 4 1 (4)
I0913 12:27:30.145692 19967 net.cpp:157] Top shape: 4 1 (4)
I0913 12:27:30.145700 19967 net.cpp:165] Memory required for data: 160192
I0913 12:27:30.145707 19967 layer_factory.hpp:76] Creating layer conv11
I0913 12:27:30.145728 19967 net.cpp:106] Creating Layer conv11
I0913 12:27:30.145736 19967 net.cpp:454] conv11 <- data
I0913 12:27:30.145751 19967 net.cpp:411] conv11 -> conv11
I0913 12:27:30.149348 19967 net.cpp:150] Setting up conv11
I0913 12:27:30.149381 19967 net.cpp:157] Top shape: 4 32 100 100 (1280000)
I0913 12:27:30.149396 19967 net.cpp:165] Memory required for data: 5280192
I0913 12:27:30.149427 19967 layer_factory.hpp:76] Creating layer bn_conv11
I0913 12:27:30.149446 19967 net.cpp:106] Creating Layer bn_conv11
I0913 12:27:30.149454 19967 net.cpp:454] bn_conv11 <- conv11
I0913 12:27:30.149467 19967 net.cpp:397] bn_conv11 -> conv11 (in-place)
I0913 12:27:30.149875 19967 net.cpp:150] Setting up bn_conv11
I0913 12:27:30.149895 19967 net.cpp:157] Top shape: 4 32 100 100 (1280000)
I0913 12:27:30.149904 19967 net.cpp:165] Memory required for data: 10400192
I0913 12:27:30.149929 19967 layer_factory.hpp:76] Creating layer scale_conv11
I0913 12:27:30.149945 19967 net.cpp:106] Creating Layer scale_conv11
I0913 12:27:30.149953 19967 net.cpp:454] scale_conv11 <- conv11
I0913 12:27:30.149966 19967 net.cpp:397] scale_conv11 -> conv11 (in-place)
I0913 12:27:30.150055 19967 layer_factory.hpp:76] Creating layer scale_conv11
I0913 12:27:30.150319 19967 net.cpp:150] Setting up scale_conv11
I0913 12:27:30.150336 19967 net.cpp:157] Top shape: 4 32 100 100 (1280000)
I0913 12:27:30.150344 19967 net.cpp:165] Memory required for data: 15520192
I0913 12:27:30.150358 19967 layer_factory.hpp:76] Creating layer relu11
I0913 12:27:30.150373 19967 net.cpp:106] Creating Layer relu11
I0913 12:27:30.150382 19967 net.cpp:454] relu11 <- conv11
I0913 12:27:30.150394 19967 net.cpp:397] relu11 -> conv11 (in-place)
I0913 12:27:30.150408 19967 net.cpp:150] Setting up relu11
I0913 12:27:30.150418 19967 net.cpp:157] Top shape: 4 32 100 100 (1280000)
I0913 12:27:30.150425 19967 net.cpp:165] Memory required for data: 20640192
I0913 12:27:30.150432 19967 layer_factory.hpp:76] Creating layer conv12
I0913 12:27:30.150449 19967 net.cpp:106] Creating Layer conv12
I0913 12:27:30.150457 19967 net.cpp:454] conv12 <- conv11
I0913 12:27:30.150472 19967 net.cpp:411] conv12 -> conv12
I0913 12:27:30.153193 19967 net.cpp:150] Setting up conv12
I0913 12:27:30.153251 19967 net.cpp:157] Top shape: 4 64 100 100 (2560000)
I0913 12:27:30.153261 19967 net.cpp:165] Memory required for data: 30880192
I0913 12:27:30.153282 19967 layer_factory.hpp:76] Creating layer bn_conv12
I0913 12:27:30.153301 19967 net.cpp:106] Creating Layer bn_conv12
I0913 12:27:30.153309 19967 net.cpp:454] bn_conv12 <- conv12
I0913 12:27:30.153321 19967 net.cpp:397] bn_conv12 -> conv12 (in-place)
I0913 12:27:30.153681 19967 net.cpp:150] Setting up bn_conv12
I0913 12:27:30.153697 19967 net.cpp:157] Top shape: 4 64 100 100 (2560000)
I0913 12:27:30.153704 19967 net.cpp:165] Memory required for data: 41120192
I0913 12:27:30.153720 19967 layer_factory.hpp:76] Creating layer scale_conv12
I0913 12:27:30.153734 19967 net.cpp:106] Creating Layer scale_conv12
I0913 12:27:30.153741 19967 net.cpp:454] scale_conv12 <- conv12
I0913 12:27:30.153753 19967 net.cpp:397] scale_conv12 -> conv12 (in-place)
I0913 12:27:30.153827 19967 layer_factory.hpp:76] Creating layer scale_conv12
I0913 12:27:30.154058 19967 net.cpp:150] Setting up scale_conv12
I0913 12:27:30.154073 19967 net.cpp:157] Top shape: 4 64 100 100 (2560000)
I0913 12:27:30.154080 19967 net.cpp:165] Memory required for data: 51360192
I0913 12:27:30.154093 19967 layer_factory.hpp:76] Creating layer relu12
I0913 12:27:30.154105 19967 net.cpp:106] Creating Layer relu12
I0913 12:27:30.154114 19967 net.cpp:454] relu12 <- conv12
I0913 12:27:30.154124 19967 net.cpp:397] relu12 -> conv12 (in-place)
I0913 12:27:30.154135 19967 net.cpp:150] Setting up relu12
I0913 12:27:30.154145 19967 net.cpp:157] Top shape: 4 64 100 100 (2560000)
I0913 12:27:30.154151 19967 net.cpp:165] Memory required for data: 61600192
I0913 12:27:30.154158 19967 layer_factory.hpp:76] Creating layer pool1
I0913 12:27:30.154171 19967 net.cpp:106] Creating Layer pool1
I0913 12:27:30.154178 19967 net.cpp:454] pool1 <- conv12
I0913 12:27:30.154188 19967 net.cpp:411] pool1 -> pool1
I0913 12:27:30.154268 19967 net.cpp:150] Setting up pool1
I0913 12:27:30.154281 19967 net.cpp:157] Top shape: 4 64 50 50 (640000)
I0913 12:27:30.154289 19967 net.cpp:165] Memory required for data: 64160192
I0913 12:27:30.154295 19967 layer_factory.hpp:76] Creating layer conv21
I0913 12:27:30.154317 19967 net.cpp:106] Creating Layer conv21
I0913 12:27:30.154326 19967 net.cpp:454] conv21 <- pool1
I0913 12:27:30.154340 19967 net.cpp:411] conv21 -> conv21
I0913 12:27:30.157888 19967 net.cpp:150] Setting up conv21
I0913 12:27:30.157919 19967 net.cpp:157] Top shape: 4 64 50 50 (640000)
I0913 12:27:30.157928 19967 net.cpp:165] Memory required for data: 66720192
I0913 12:27:30.157944 19967 layer_factory.hpp:76] Creating layer bn_conv21
I0913 12:27:30.157959 19967 net.cpp:106] Creating Layer bn_conv21
I0913 12:27:30.157968 19967 net.cpp:454] bn_conv21 <- conv21
I0913 12:27:30.157980 19967 net.cpp:397] bn_conv21 -> conv21 (in-place)
I0913 12:27:30.158334 19967 net.cpp:150] Setting up bn_conv21
I0913 12:27:30.158350 19967 net.cpp:157] Top shape: 4 64 50 50 (640000)
I0913 12:27:30.158359 19967 net.cpp:165] Memory required for data: 69280192
I0913 12:27:30.158383 19967 layer_factory.hpp:76] Creating layer scale_conv21
I0913 12:27:30.158397 19967 net.cpp:106] Creating Layer scale_conv21
I0913 12:27:30.158406 19967 net.cpp:454] scale_conv21 <- conv21
I0913 12:27:30.158416 19967 net.cpp:397] scale_conv21 -> conv21 (in-place)
I0913 12:27:30.158489 19967 layer_factory.hpp:76] Creating layer scale_conv21
I0913 12:27:30.158710 19967 net.cpp:150] Setting up scale_conv21
I0913 12:27:30.158725 19967 net.cpp:157] Top shape: 4 64 50 50 (640000)
I0913 12:27:30.158731 19967 net.cpp:165] Memory required for data: 71840192
I0913 12:27:30.158746 19967 layer_factory.hpp:76] Creating layer relu21
I0913 12:27:30.158758 19967 net.cpp:106] Creating Layer relu21
I0913 12:27:30.158766 19967 net.cpp:454] relu21 <- conv21
I0913 12:27:30.158776 19967 net.cpp:397] relu21 -> conv21 (in-place)
I0913 12:27:30.158787 19967 net.cpp:150] Setting up relu21
I0913 12:27:30.158797 19967 net.cpp:157] Top shape: 4 64 50 50 (640000)
I0913 12:27:30.158828 19967 net.cpp:165] Memory required for data: 74400192
I0913 12:27:30.158836 19967 layer_factory.hpp:76] Creating layer conv22
I0913 12:27:30.158856 19967 net.cpp:106] Creating Layer conv22
I0913 12:27:30.158864 19967 net.cpp:454] conv22 <- conv21
I0913 12:27:30.158879 19967 net.cpp:411] conv22 -> conv22
I0913 12:27:30.163450 19967 net.cpp:150] Setting up conv22
I0913 12:27:30.163471 19967 net.cpp:157] Top shape: 4 128 50 50 (1280000)
I0913 12:27:30.163480 19967 net.cpp:165] Memory required for data: 79520192
I0913 12:27:30.163493 19967 layer_factory.hpp:76] Creating layer bn_conv22
I0913 12:27:30.163507 19967 net.cpp:106] Creating Layer bn_conv22
I0913 12:27:30.163516 19967 net.cpp:454] bn_conv22 <- conv22
I0913 12:27:30.163527 19967 net.cpp:397] bn_conv22 -> conv22 (in-place)
I0913 12:27:30.163856 19967 net.cpp:150] Setting up bn_conv22
I0913 12:27:30.163871 19967 net.cpp:157] Top shape: 4 128 50 50 (1280000)
I0913 12:27:30.163877 19967 net.cpp:165] Memory required for data: 84640192
I0913 12:27:30.163893 19967 layer_factory.hpp:76] Creating layer scale_conv22
I0913 12:27:30.163908 19967 net.cpp:106] Creating Layer scale_conv22
I0913 12:27:30.163915 19967 net.cpp:454] scale_conv22 <- conv22
I0913 12:27:30.163926 19967 net.cpp:397] scale_conv22 -> conv22 (in-place)
I0913 12:27:30.163995 19967 layer_factory.hpp:76] Creating layer scale_conv22
I0913 12:27:30.164201 19967 net.cpp:150] Setting up scale_conv22
I0913 12:27:30.164216 19967 net.cpp:157] Top shape: 4 128 50 50 (1280000)
I0913 12:27:30.164225 19967 net.cpp:165] Memory required for data: 89760192
I0913 12:27:30.164239 19967 layer_factory.hpp:76] Creating layer relu22
I0913 12:27:30.164252 19967 net.cpp:106] Creating Layer relu22
I0913 12:27:30.164259 19967 net.cpp:454] relu22 <- conv22
I0913 12:27:30.164271 19967 net.cpp:397] relu22 -> conv22 (in-place)
I0913 12:27:30.164283 19967 net.cpp:150] Setting up relu22
I0913 12:27:30.164293 19967 net.cpp:157] Top shape: 4 128 50 50 (1280000)
I0913 12:27:30.164299 19967 net.cpp:165] Memory required for data: 94880192
I0913 12:27:30.164305 19967 layer_factory.hpp:76] Creating layer pool2
I0913 12:27:30.164317 19967 net.cpp:106] Creating Layer pool2
I0913 12:27:30.164331 19967 net.cpp:454] pool2 <- conv22
I0913 12:27:30.164343 19967 net.cpp:411] pool2 -> pool2
I0913 12:27:30.164413 19967 net.cpp:150] Setting up pool2
I0913 12:27:30.164427 19967 net.cpp:157] Top shape: 4 128 25 25 (320000)
I0913 12:27:30.164435 19967 net.cpp:165] Memory required for data: 96160192
I0913 12:27:30.164444 19967 layer_factory.hpp:76] Creating layer conv31
I0913 12:27:30.164463 19967 net.cpp:106] Creating Layer conv31
I0913 12:27:30.164470 19967 net.cpp:454] conv31 <- pool2
I0913 12:27:30.164485 19967 net.cpp:411] conv31 -> conv31
I0913 12:27:30.171913 19967 net.cpp:150] Setting up conv31
I0913 12:27:30.171959 19967 net.cpp:157] Top shape: 4 96 25 25 (240000)
I0913 12:27:30.171967 19967 net.cpp:165] Memory required for data: 97120192
I0913 12:27:30.171983 19967 layer_factory.hpp:76] Creating layer bn_conv31
I0913 12:27:30.172000 19967 net.cpp:106] Creating Layer bn_conv31
I0913 12:27:30.172010 19967 net.cpp:454] bn_conv31 <- conv31
I0913 12:27:30.172024 19967 net.cpp:397] bn_conv31 -> conv31 (in-place)
I0913 12:27:30.172366 19967 net.cpp:150] Setting up bn_conv31
I0913 12:27:30.172381 19967 net.cpp:157] Top shape: 4 96 25 25 (240000)
I0913 12:27:30.172389 19967 net.cpp:165] Memory required for data: 98080192
I0913 12:27:30.172420 19967 layer_factory.hpp:76] Creating layer scale_conv31
I0913 12:27:30.172436 19967 net.cpp:106] Creating Layer scale_conv31
I0913 12:27:30.172443 19967 net.cpp:454] scale_conv31 <- conv31
I0913 12:27:30.172454 19967 net.cpp:397] scale_conv31 -> conv31 (in-place)
I0913 12:27:30.172528 19967 layer_factory.hpp:76] Creating layer scale_conv31
I0913 12:27:30.172737 19967 net.cpp:150] Setting up scale_conv31
I0913 12:27:30.172751 19967 net.cpp:157] Top shape: 4 96 25 25 (240000)
I0913 12:27:30.172758 19967 net.cpp:165] Memory required for data: 99040192
I0913 12:27:30.172770 19967 layer_factory.hpp:76] Creating layer relu31
I0913 12:27:30.172832 19967 net.cpp:106] Creating Layer relu31
I0913 12:27:30.172839 19967 net.cpp:454] relu31 <- conv31
I0913 12:27:30.172849 19967 net.cpp:397] relu31 -> conv31 (in-place)
I0913 12:27:30.172863 19967 net.cpp:150] Setting up relu31
I0913 12:27:30.172873 19967 net.cpp:157] Top shape: 4 96 25 25 (240000)
I0913 12:27:30.172878 19967 net.cpp:165] Memory required for data: 100000192
I0913 12:27:30.172885 19967 layer_factory.hpp:76] Creating layer conv32
I0913 12:27:30.172902 19967 net.cpp:106] Creating Layer conv32
I0913 12:27:30.172909 19967 net.cpp:454] conv32 <- conv31
I0913 12:27:30.172922 19967 net.cpp:411] conv32 -> conv32
I0913 12:27:30.182865 19967 net.cpp:150] Setting up conv32
I0913 12:27:30.182903 19967 net.cpp:157] Top shape: 4 192 25 25 (480000)
I0913 12:27:30.182909 19967 net.cpp:165] Memory required for data: 101920192
I0913 12:27:30.182924 19967 layer_factory.hpp:76] Creating layer bn_conv32
I0913 12:27:30.182940 19967 net.cpp:106] Creating Layer bn_conv32
I0913 12:27:30.182948 19967 net.cpp:454] bn_conv32 <- conv32
I0913 12:27:30.182960 19967 net.cpp:397] bn_conv32 -> conv32 (in-place)
I0913 12:27:30.183291 19967 net.cpp:150] Setting up bn_conv32
I0913 12:27:30.183306 19967 net.cpp:157] Top shape: 4 192 25 25 (480000)
I0913 12:27:30.183313 19967 net.cpp:165] Memory required for data: 103840192
I0913 12:27:30.183329 19967 layer_factory.hpp:76] Creating layer scale_conv32
I0913 12:27:30.183343 19967 net.cpp:106] Creating Layer scale_conv32
I0913 12:27:30.183351 19967 net.cpp:454] scale_conv32 <- conv32
I0913 12:27:30.183362 19967 net.cpp:397] scale_conv32 -> conv32 (in-place)
I0913 12:27:30.183428 19967 layer_factory.hpp:76] Creating layer scale_conv32
I0913 12:27:30.183636 19967 net.cpp:150] Setting up scale_conv32
I0913 12:27:30.183651 19967 net.cpp:157] Top shape: 4 192 25 25 (480000)
I0913 12:27:30.183660 19967 net.cpp:165] Memory required for data: 105760192
I0913 12:27:30.183671 19967 layer_factory.hpp:76] Creating layer relu32
I0913 12:27:30.183683 19967 net.cpp:106] Creating Layer relu32
I0913 12:27:30.183691 19967 net.cpp:454] relu32 <- conv32
I0913 12:27:30.183701 19967 net.cpp:397] relu32 -> conv32 (in-place)
I0913 12:27:30.183720 19967 net.cpp:150] Setting up relu32
I0913 12:27:30.183729 19967 net.cpp:157] Top shape: 4 192 25 25 (480000)
I0913 12:27:30.183735 19967 net.cpp:165] Memory required for data: 107680192
I0913 12:27:30.183742 19967 layer_factory.hpp:76] Creating layer pool3
I0913 12:27:30.183753 19967 net.cpp:106] Creating Layer pool3
I0913 12:27:30.183758 19967 net.cpp:454] pool3 <- conv32
I0913 12:27:30.183769 19967 net.cpp:411] pool3 -> pool3
I0913 12:27:30.183831 19967 net.cpp:150] Setting up pool3
I0913 12:27:30.183845 19967 net.cpp:157] Top shape: 4 192 13 13 (129792)
I0913 12:27:30.183851 19967 net.cpp:165] Memory required for data: 108199360
I0913 12:27:30.183858 19967 layer_factory.hpp:76] Creating layer conv41
I0913 12:27:30.183876 19967 net.cpp:106] Creating Layer conv41
I0913 12:27:30.183883 19967 net.cpp:454] conv41 <- pool3
I0913 12:27:30.183898 19967 net.cpp:411] conv41 -> conv41
I0913 12:27:30.195886 19967 net.cpp:150] Setting up conv41
I0913 12:27:30.195940 19967 net.cpp:157] Top shape: 4 128 13 13 (86528)
I0913 12:27:30.195948 19967 net.cpp:165] Memory required for data: 108545472
I0913 12:27:30.195963 19967 layer_factory.hpp:76] Creating layer bn_conv41
I0913 12:27:30.195988 19967 net.cpp:106] Creating Layer bn_conv41
I0913 12:27:30.195996 19967 net.cpp:454] bn_conv41 <- conv41
I0913 12:27:30.196008 19967 net.cpp:397] bn_conv41 -> conv41 (in-place)
I0913 12:27:30.196291 19967 net.cpp:150] Setting up bn_conv41
I0913 12:27:30.196303 19967 net.cpp:157] Top shape: 4 128 13 13 (86528)
I0913 12:27:30.196310 19967 net.cpp:165] Memory required for data: 108891584
I0913 12:27:30.196322 19967 layer_factory.hpp:76] Creating layer scale_conv41
I0913 12:27:30.196346 19967 net.cpp:106] Creating Layer scale_conv41
I0913 12:27:30.196353 19967 net.cpp:454] scale_conv41 <- conv41
I0913 12:27:30.196362 19967 net.cpp:397] scale_conv41 -> conv41 (in-place)
I0913 12:27:30.196470 19967 layer_factory.hpp:76] Creating layer scale_conv41
I0913 12:27:30.196636 19967 net.cpp:150] Setting up scale_conv41
I0913 12:27:30.196648 19967 net.cpp:157] Top shape: 4 128 13 13 (86528)
I0913 12:27:30.196655 19967 net.cpp:165] Memory required for data: 109237696
I0913 12:27:30.196666 19967 layer_factory.hpp:76] Creating layer relu41
I0913 12:27:30.196678 19967 net.cpp:106] Creating Layer relu41
I0913 12:27:30.196684 19967 net.cpp:454] relu41 <- conv41
I0913 12:27:30.196703 19967 net.cpp:397] relu41 -> conv41 (in-place)
I0913 12:27:30.196713 19967 net.cpp:150] Setting up relu41
I0913 12:27:30.196722 19967 net.cpp:157] Top shape: 4 128 13 13 (86528)
I0913 12:27:30.196727 19967 net.cpp:165] Memory required for data: 109583808
I0913 12:27:30.196733 19967 layer_factory.hpp:76] Creating layer conv42
I0913 12:27:30.196758 19967 net.cpp:106] Creating Layer conv42
I0913 12:27:30.196763 19967 net.cpp:454] conv42 <- conv41
I0913 12:27:30.196776 19967 net.cpp:411] conv42 -> conv42
I0913 12:27:30.211380 19967 net.cpp:150] Setting up conv42
I0913 12:27:30.211422 19967 net.cpp:157] Top shape: 4 256 13 13 (173056)
I0913 12:27:30.211429 19967 net.cpp:165] Memory required for data: 110276032
I0913 12:27:30.211443 19967 layer_factory.hpp:76] Creating layer bn_conv42
I0913 12:27:30.211457 19967 net.cpp:106] Creating Layer bn_conv42
I0913 12:27:30.211465 19967 net.cpp:454] bn_conv42 <- conv42
I0913 12:27:30.211477 19967 net.cpp:397] bn_conv42 -> conv42 (in-place)
I0913 12:27:30.211750 19967 net.cpp:150] Setting up bn_conv42
I0913 12:27:30.211762 19967 net.cpp:157] Top shape: 4 256 13 13 (173056)
I0913 12:27:30.211768 19967 net.cpp:165] Memory required for data: 110968256
I0913 12:27:30.211781 19967 layer_factory.hpp:76] Creating layer scale_conv42
I0913 12:27:30.211794 19967 net.cpp:106] Creating Layer scale_conv42
I0913 12:27:30.211801 19967 net.cpp:454] scale_conv42 <- conv42
I0913 12:27:30.211812 19967 net.cpp:397] scale_conv42 -> conv42 (in-place)
I0913 12:27:30.211877 19967 layer_factory.hpp:76] Creating layer scale_conv42
I0913 12:27:30.212045 19967 net.cpp:150] Setting up scale_conv42
I0913 12:27:30.212056 19967 net.cpp:157] Top shape: 4 256 13 13 (173056)
I0913 12:27:30.212069 19967 net.cpp:165] Memory required for data: 111660480
I0913 12:27:30.212080 19967 layer_factory.hpp:76] Creating layer relu42
I0913 12:27:30.212090 19967 net.cpp:106] Creating Layer relu42
I0913 12:27:30.212095 19967 net.cpp:454] relu42 <- conv42
I0913 12:27:30.212105 19967 net.cpp:397] relu42 -> conv42 (in-place)
I0913 12:27:30.212116 19967 net.cpp:150] Setting up relu42
I0913 12:27:30.212123 19967 net.cpp:157] Top shape: 4 256 13 13 (173056)
I0913 12:27:30.212128 19967 net.cpp:165] Memory required for data: 112352704
I0913 12:27:30.212133 19967 layer_factory.hpp:76] Creating layer pool4
I0913 12:27:30.212143 19967 net.cpp:106] Creating Layer pool4
I0913 12:27:30.212148 19967 net.cpp:454] pool4 <- conv42
I0913 12:27:30.212159 19967 net.cpp:411] pool4 -> pool4
I0913 12:27:30.212220 19967 net.cpp:150] Setting up pool4
I0913 12:27:30.212230 19967 net.cpp:157] Top shape: 4 256 7 7 (50176)
I0913 12:27:30.212236 19967 net.cpp:165] Memory required for data: 112553408
I0913 12:27:30.212241 19967 layer_factory.hpp:76] Creating layer conv51
I0913 12:27:30.212257 19967 net.cpp:106] Creating Layer conv51
I0913 12:27:30.212265 19967 net.cpp:454] conv51 <- pool4
I0913 12:27:30.212277 19967 net.cpp:411] conv51 -> conv51
I0913 12:27:30.228775 19967 net.cpp:150] Setting up conv51
I0913 12:27:30.228796 19967 net.cpp:157] Top shape: 4 160 7 7 (31360)
I0913 12:27:30.228801 19967 net.cpp:165] Memory required for data: 112678848
I0913 12:27:30.228819 19967 layer_factory.hpp:76] Creating layer bn_conv51
I0913 12:27:30.228830 19967 net.cpp:106] Creating Layer bn_conv51
I0913 12:27:30.228837 19967 net.cpp:454] bn_conv51 <- conv51
I0913 12:27:30.228845 19967 net.cpp:397] bn_conv51 -> conv51 (in-place)
I0913 12:27:30.229109 19967 net.cpp:150] Setting up bn_conv51
I0913 12:27:30.229120 19967 net.cpp:157] Top shape: 4 160 7 7 (31360)
I0913 12:27:30.229126 19967 net.cpp:165] Memory required for data: 112804288
I0913 12:27:30.229168 19967 layer_factory.hpp:76] Creating layer scale_conv51
I0913 12:27:30.229181 19967 net.cpp:106] Creating Layer scale_conv51
I0913 12:27:30.229185 19967 net.cpp:454] scale_conv51 <- conv51
I0913 12:27:30.229202 19967 net.cpp:397] scale_conv51 -> conv51 (in-place)
I0913 12:27:30.229267 19967 layer_factory.hpp:76] Creating layer scale_conv51
I0913 12:27:30.229444 19967 net.cpp:150] Setting up scale_conv51
I0913 12:27:30.229456 19967 net.cpp:157] Top shape: 4 160 7 7 (31360)
I0913 12:27:30.229462 19967 net.cpp:165] Memory required for data: 112929728
I0913 12:27:30.229472 19967 layer_factory.hpp:76] Creating layer relu51
I0913 12:27:30.229491 19967 net.cpp:106] Creating Layer relu51
I0913 12:27:30.229497 19967 net.cpp:454] relu51 <- conv51
I0913 12:27:30.229506 19967 net.cpp:397] relu51 -> conv51 (in-place)
I0913 12:27:30.229514 19967 net.cpp:150] Setting up relu51
I0913 12:27:30.229521 19967 net.cpp:157] Top shape: 4 160 7 7 (31360)
I0913 12:27:30.229532 19967 net.cpp:165] Memory required for data: 113055168
I0913 12:27:30.229537 19967 layer_factory.hpp:76] Creating layer conv52
I0913 12:27:30.229549 19967 net.cpp:106] Creating Layer conv52
I0913 12:27:30.229554 19967 net.cpp:454] conv52 <- conv51
I0913 12:27:30.229564 19967 net.cpp:411] conv52 -> conv52
I0913 12:27:30.248553 19967 net.cpp:150] Setting up conv52
I0913 12:27:30.248574 19967 net.cpp:157] Top shape: 4 320 7 7 (62720)
I0913 12:27:30.248579 19967 net.cpp:165] Memory required for data: 113306048
I0913 12:27:30.248610 19967 layer_factory.hpp:76] Creating layer bn_conv52
I0913 12:27:30.248620 19967 net.cpp:106] Creating Layer bn_conv52
I0913 12:27:30.248626 19967 net.cpp:454] bn_conv52 <- conv52
I0913 12:27:30.248633 19967 net.cpp:397] bn_conv52 -> conv52 (in-place)
I0913 12:27:30.248914 19967 net.cpp:150] Setting up bn_conv52
I0913 12:27:30.248925 19967 net.cpp:157] Top shape: 4 320 7 7 (62720)
I0913 12:27:30.248930 19967 net.cpp:165] Memory required for data: 113556928
I0913 12:27:30.248940 19967 layer_factory.hpp:76] Creating layer scale_conv52
I0913 12:27:30.248951 19967 net.cpp:106] Creating Layer scale_conv52
I0913 12:27:30.248956 19967 net.cpp:454] scale_conv52 <- conv52
I0913 12:27:30.248970 19967 net.cpp:397] scale_conv52 -> conv52 (in-place)
I0913 12:27:30.249033 19967 layer_factory.hpp:76] Creating layer scale_conv52
I0913 12:27:30.249189 19967 net.cpp:150] Setting up scale_conv52
I0913 12:27:30.249202 19967 net.cpp:157] Top shape: 4 320 7 7 (62720)
I0913 12:27:30.249207 19967 net.cpp:165] Memory required for data: 113807808
I0913 12:27:30.249217 19967 layer_factory.hpp:76] Creating layer pool5
I0913 12:27:30.249228 19967 net.cpp:106] Creating Layer pool5
I0913 12:27:30.249233 19967 net.cpp:454] pool5 <- conv52
I0913 12:27:30.249241 19967 net.cpp:411] pool5 -> pool5
I0913 12:27:30.249272 19967 net.cpp:150] Setting up pool5
I0913 12:27:30.249281 19967 net.cpp:157] Top shape: 4 320 1 1 (1280)
I0913 12:27:30.249285 19967 net.cpp:165] Memory required for data: 113812928
I0913 12:27:30.249289 19967 layer_factory.hpp:76] Creating layer drop5
I0913 12:27:30.249300 19967 net.cpp:106] Creating Layer drop5
I0913 12:27:30.249305 19967 net.cpp:454] drop5 <- pool5
I0913 12:27:30.249315 19967 net.cpp:397] drop5 -> pool5 (in-place)
I0913 12:27:30.249349 19967 net.cpp:150] Setting up drop5
I0913 12:27:30.249359 19967 net.cpp:157] Top shape: 4 320 1 1 (1280)
I0913 12:27:30.249364 19967 net.cpp:165] Memory required for data: 113818048
I0913 12:27:30.249371 19967 layer_factory.hpp:76] Creating layer fc6_id
I0913 12:27:30.249382 19967 net.cpp:106] Creating Layer fc6_id
I0913 12:27:30.249387 19967 net.cpp:454] fc6_id <- pool5
I0913 12:27:30.249398 19967 net.cpp:411] fc6_id -> fc6_id
I0913 12:27:30.251813 19967 net.cpp:150] Setting up fc6_id
I0913 12:27:30.251824 19967 net.cpp:157] Top shape: 4 200 (800)
I0913 12:27:30.251828 19967 net.cpp:165] Memory required for data: 113821248
I0913 12:27:30.251837 19967 layer_factory.hpp:76] Creating layer fc6_id_fc6_id_0_split
I0913 12:27:30.251847 19967 net.cpp:106] Creating Layer fc6_id_fc6_id_0_split
I0913 12:27:30.251868 19967 net.cpp:454] fc6_id_fc6_id_0_split <- fc6_id
I0913 12:27:30.251878 19967 net.cpp:411] fc6_id_fc6_id_0_split -> fc6_id_fc6_id_0_split_0
I0913 12:27:30.251888 19967 net.cpp:411] fc6_id_fc6_id_0_split -> fc6_id_fc6_id_0_split_1
I0913 12:27:30.251935 19967 net.cpp:150] Setting up fc6_id_fc6_id_0_split
I0913 12:27:30.251945 19967 net.cpp:157] Top shape: 4 200 (800)
I0913 12:27:30.251950 19967 net.cpp:157] Top shape: 4 200 (800)
I0913 12:27:30.251953 19967 net.cpp:165] Memory required for data: 113827648
I0913 12:27:30.251958 19967 layer_factory.hpp:76] Creating layer prob_id
I0913 12:27:30.251968 19967 net.cpp:106] Creating Layer prob_id
I0913 12:27:30.251973 19967 net.cpp:454] prob_id <- fc6_id_fc6_id_0_split_0
I0913 12:27:30.251982 19967 net.cpp:411] prob_id -> prob_id
I0913 12:27:30.252058 19967 net.cpp:150] Setting up prob_id
I0913 12:27:30.252066 19967 net.cpp:157] Top shape: 4 200 (800)
I0913 12:27:30.252071 19967 net.cpp:165] Memory required for data: 113830848
I0913 12:27:30.252075 19967 layer_factory.hpp:76] Creating layer accuracy_id
I0913 12:27:30.252084 19967 net.cpp:106] Creating Layer accuracy_id
I0913 12:27:30.252089 19967 net.cpp:454] accuracy_id <- prob_id
I0913 12:27:30.252095 19967 net.cpp:454] accuracy_id <- label_id_slice1_0_split_0
I0913 12:27:30.252104 19967 net.cpp:411] accuracy_id -> accuracy_id
…
